libs/lightning_logs/version_17/checkpoints/epoch=1-step=499.ckpt (torch, 3475 bytes, 6 tensors)

model.f.0.weight f4 [5, 1, 1, 1, 1]
-0.14302419 0.78623724 1.2445948 0.54330933 0.23007008
00000000: ef74 12be d846 493f e24e 9f3f 5216 0b3f
00000010: 7e97 6b3e

model.f.0.bias f4 [5]
-0.35989383 -0.6344109 0.10009671 -1.2282982 0.019537983
00000000: 0144 b8be c168 22bf 81ff cc3d e038 9dbf
00000010: 1f0e a03c

exp_avg f4 [5, 1, 1, 1, 1]
0.9274567 -0.054689594 -0.005584693 -0.07434142 -0.79271775
00000000: cd6d 6d3f 3202 60bd cdff b6bb 5040 98bd
00000010: 8def 4abf

exp_avg_sq f4 [5, 1, 1, 1, 1]
1.4455988 0.005435414 0.00033869533 0.009211942 1.034843
00000000: 6209 b93f 8f1b b23b eb92 b139 afed 163c
00000010: bc75 843f

exp_avg f4 [5]
-0.3996179 0.04004723 0.05700718 0.03477627 0.2677873
00000000: b89a ccbe 9008 243d 5c80 693d 9071 0e3d
00000010: 6b1b 893e

exp_avg_sq f4 [5]
0.18293926 0.0013689701 0.0017994484 0.0013249029 0.09804018
00000000: 6e54 3b3e 046f b33a 78db eb3a 5da8 ad3a
00000010: 4ac9 c83d
